…
train: (40000, 32, 32, 3, 1), (40000, 1)
val: (10000, 32, 32, 3, 1), (10000, 1)
test: (10000, 32, 32, 3, 1), (10000, 1)

Model: "cifar10_cnn"
_________________________________________________________________
 Layer (type)                Output Shape              Param #   
=================================================================
 input_1 (InputLayer)        [(None, 32, 32, 3)]       0         
                                                                 
 sequential (Sequential)     multiple                  0         
                                                                 
 conv2d (Conv2D)             (None, 30, 30, 32)        896       
                                                                 
 max_pooling2d (MaxPooling2  (None, 15, 15, 32)        0         
 D)                                                              
                                                                 
 conv2d_1 (Conv2D)           (None, 13, 13, 64)        18496     
                                                                 
 max_pooling2d_1 (MaxPoolin  (None, 6, 6, 64)          0         
 g2D)                                                            
                                                                 
 conv2d_2 (Conv2D)           (None, 4, 4, 64)          36928     
                                                                 
 flatten (Flatten)           (None, 1024)              0         
                                                                 
 dense (Dense)               (None, 64)                65600     
                                                                 
 dense_1 (Dense)             (None, 10)                650       
                                                                 
=================================================================
Total params: 122570 (478.79 KB)
Trainable params: 122570 (478.79 KB)
Non-trainable params: 0 (0.00 Byte)
_________________________________________________________________
Epoch 1/15
   1/1250 [..............................] - ETA: 29:51 - loss: 2.3073 - acc
…
